scripts/mech_interp/toy_models_small.pth (torch, 2541 bytes, 2 tensors)

weights f4 [10, 5, 2]
-0.00049737777 -0.1102033 -0.20066787 -0.3013321 -0.109782085 -0.07139923 0.18929589 -0.31736928
0.178644 -0.028291112 0.8092401 -0.04611661 -0.13277248 0.21213952 -0.038383096 0.11070617
0.21819767 -0.19287448 -0.17327243 0.10373955 -0.068819076 0.65039164 -0.6236694 0.13578834
-0.05492003 0.16209841 0.53461987 0.19033413 -0.13835528 0.19577816 0.18040048 -0.1715891
0.53616786 0.017221298 -0.26891872 -0.08861756 -0.5814169 -0.04073968 -0.12936273 0.10823032
0.15660293 -0.13586722 -0.33169425 0.25676075 0.032141738 -0.24550486 -0.12482225 -0.2549969
0.21552834 -0.029266601 0.19144437 -0.018245965 0.10042944 0.023899607 -0.3267966 0.102172546
0.22658166 0.06652059 0.049097203 0.21261136 -0.11758486 -0.18707526 -0.040132023 -0.37628546
-0.66244996 -0.037228037 -0.07240683 -0.4447199 0.22047809 0.037039787 0.07328303 -0.3676945
-0.106882595 -0.05229469 0.5835902 0.14569372 0.087555654 -0.16465317 0.01933438 -0.13821852
-0.4030845 0.041964486 0.18924262 -0.1528759 -0.5828587 0.54612917 0.2936313 -0.027496884
-0.33954984 -0.41297695 -0.24868537 0.028159127 -0.04012152 0.10090906 0.4217596 0.05260256
-0.023099238 0.122228235 -0.050589535 -0.14713986
00000000: 7562 02ba 45b2 e1bd e17b 4dbe 3348 9abe
00000010: 6ed5 e0bd c239 92bd c8d6 413e 3a7e a2be
00000020: 74ee 363e c3c2 e7bc 5c2a 4f3f c5e4 3cbd
00000030: 82f5 07be 1a3b 593e 9837 1dbd ebb9 e23d
00000040: 366f 5f3e e380 45be 546e 31be 6775 d43d
00000050: 04f1 8cbd 1180 263f cca8 1fbf 190c 0b3e
00000060: d3f3 60bd 20fd 253e d9dc 083f f3e6 423e
00000070: 02ad 0dbe 127a 483e e7ba 383e 0eb5 2fbe
00000080: 4c42 093f ae13 8d3c b7af 89be 207d b5bd
00000090: bdd7 14bf a7de 26bd aa77 04be dca7 dd3d
000000a0: 855c 203e c720 0bbe d4d3 a9be 2576 833e
000000b0: 0ea7 033d a065 7bbe cfa2 ffbd f48e 82be
000000c0: 76b3 5c3e 83c0 efbc fe09 443e 9078 95bc
000000d0: f3ad cd3d 1cc9 c33c e251 a7be d73f d13d
000000e0: 0605 683e f23b 883d 261a 493d cbb6 593e
000000f0: 55d0 f0bd a890 3fbe 7a61 24bd 7da8 c0be
00000100: 5296 29bf 6d7c 18bd 084a 94bd 54b2 e3be
00000110: 02c5 613e 08b7 173d 6a15 963d 7442 bcbe
00000120: 43e5 dabd f532 56bd 2b66 153f bc30 153e
00000130: 6150 b33d d79a 28be 2263 9e3c 2889 0dbe
00000140: 1761 cebe f4e2 2b3d d1c8 413e 808b 1cbe
00000150: 3a36 15bf 1fcf 0b3f d756 963e 2541 e1bc
00000160: 7ad9 adbe b771 d3be 61a7 7ebe f8ad e63c
00000170: 7756 24bd 69a9 ce3d e0f0 d73e c875 573d
00000180: 9d3a bdbc cc52 fa3d f936 4fbd d5ab 16be

bias f4 [10, 5]
0.0 0.0 0.0 0.0 0.0 0.0 0.0 0.0
0.0 0.0 0.0 0.0 0.0 0.0 0.0 0.0
0.0 0.0 0.0 0.0 0.0 0.0 0.0 0.0
0.0 0.0 0.0 0.0 0.0 0.0 0.0 0.0
0.0 0.0 0.0 0.0 0.0 0.0 0.0 0.0
0.0 0.0 0.0 0.0 0.0 0.0 0.0 0.0
0.0 0.0
00000000: 0000 0000 0000 0000 0000 0000 0000 0000
00000010: 0000 0000 0000 0000 0000 0000 0000 0000
00000020: 0000 0000 0000 0000 0000 0000 0000 0000
00000030: 0000 0000 0000 0000 0000 0000 0000 0000
00000040: 0000 0000 0000 0000 0000 0000 0000 0000
00000050: 0000 0000 0000 0000 0000 0000 0000 0000
00000060: 0000 0000 0000 0000 0000 0000 0000 0000
00000070: 0000 0000 0000 0000 0000 0000 0000 0000
00000080: 0000 0000 0000 0000 0000 0000 0000 0000
00000090: 0000 0000 0000 0000 0000 0000 0000 0000
000000a0: 0000 0000 0000 0000 0000 0000 0000 0000
000000b0: 0000 0000 0000 0000 0000 0000 0000 0000
000000c0: 0000 0000 0000 0000
